rl project code/model.pth (torch_old, 283070 bytes, 8 tensors)

hidden_layers.0.weight f4 [256, 11]
00000000: b389 b6be ea32 85bf b269 fc3d 3ede 293e
00000010: 2030 743e d2a6 9f3d 31ca d8be 7db7 2ebe
00000020: ade9 a13d b220 863d 7016 a53d 76e4 b83e
00000030: 1c3b 9b3f 6cc8 79bd dd6a c13e cd08 6a3c
00000040: 7ee5 113d 5741 c3bd fd86 42bd e39a 4a3e
00000050: a5dc 273c 3820 e2bd c6d8 b2be 927e a9bf
00000060: d643 543e 7d69 59be 0ae7 353f cd58 38be
00000070: 95a0 d8bd e3a6 8d3c 91b7 2abe 735b d93d
00000080: 21c9 29bd 0f04 9d3e dd6d 1740 4fb1 6d3e
00000090: 7c52 c43d bb42 1dbf fd49 25bf 0bf1 af3e
000000a0: 67c1 bc3d 5035 b2bd bb12 e7bc b9e4 a03d
000000b0: 6173 563e bf46 a53f a7ee 50be 906d e73e
000000c0: c52c b93e 25a0 23bf c2b7 d93e 4f97 e83e
000000d0: 7c8c babe 8bca aabd fe0c 5ebd 34b0 28be
000000e0: 264a f6be fff3 a33f cc42 47bf 7dee 433d
000000f0: 14f1 a4bd 37f5 75bc 3b49 babd cb0e 8c3d
00000100: 521b 883e 57ea cd3c 6efa 9cbe cef0 b7bf
00000110: 4c96 5fbf 24b7 1e3f 89fe 7a3e 7200 80be
00000120: 4c05 4b3d 1b1a 4e3e 304a babe 3c48 e6bd
00000130: 518c 953d 1498 8bbe bbf9 adbf 0353 b9be
00000140: 4312 653f c7fa 963f 086d a53e 2494 d63c
00000150: 57dd 03be c3f5 1abd 7f98 b5bd cfb3 f33c
00000160: 9661 a8be 93e9 e8bf cba8 453f 5f81 8ebf
00000170: 970e 0bbf e44f e1be 4f1d 16bf d82e d63c
00000180: fdfb 25bd 9ad2 bc3c 63a4 78bd 0ef7 413d
00000190: 7380 ea3f 8401 d33f 0536 43be b5c7 b1be
000001a0: b840 353d c289 86bd c6f6 83bd aeb2 dd3e
000001b0: ae21 403e 106f 0f3d 9021 17bf 28c4 13bf
000001c0: 6795 623f 06bd 85bf 0d77 11bd e3b0 ba3b
000001d0: 278a 50be 57ff c3be 8a2e a13e 6caa a6bd
000001e0: dddf 8d3d 7cfd 76be 4c90 f23f d636 a0bf
000001f0: 66f6 6cbf 197c 2fbf fa93 af3e c886 22be
00000200: f67c e1bd 9641 213d 398b 183d e8be 7b3c
00000210: a968 013e 44c4 8d3f 8c59 b5be 3909 bdbe
00000220: 8e5c e5be 846c 76bd eb1b 043e b271 dabe
00000230: 3d41 c23e 9a5b 3a3e 47fd 333d 9bbd 05be
00000240: 0b8d 4bc0 fea9 c53e 83a1 06bf c681 ffbe
00000250: ccb0 61be 2716 fc3d 1e86 b4bd 8e92 e73d
00000260: 344e e13d 888f 2d3a da44 fbbe b60d 17bf
00000270: b44b 4abf 1e0b 27bf 1b44 68bf d2a1 80be
00000280: 2a56 43bf 9a67 65be d848 543e f9fa 993d
00000290: 087e 933d 3a1e e43d 9623 453f c34a cb3f
000002a0: 9e1c f23e 32d4 863f 3541 35bf 8fbf 533e
000002b0: 2ae7 193e 863c 053e 421b c83e fad5 243e
000002c0: cd4b 47be 7159 88c0 c276 863e 465c b03e
000002d0: 18c4 efbd a6d9 333e 775f a2bc e102 25be
000002e0: 98eb fb3b be13 0ebd 44a2 67bb 0f6f ebbd
000002f0: 5c2b 3b3f a2d7 173e cc71 343f 4f03 bdbf
00000300: effd 65be c0cb b2bc 6231 3d3c 2781 893c
00000310: 3a83 983d 612a 123e 6166 42bf 0138 96bf
00000320: 0b00 6bbf 8efd 81be d937 abbe 7ef1 933d
00000330: 790d e5be 63f3 993d 27ec 15be 378b 0abe
00000340: 5f2d 673e c5e6 07bf ddf0 f0be 63c0 16be
00000350: 53c5 ab3e 9835 a83e d846 94be cdee 49bf
00000360: 3637 89be 8ac4 7e3c 31c6 3c3e f1b8 553d
00000370: 1e0a 04be eabf bebf d8c8 6a3d eefe 08bb
00000380: d25a 383e 3c48 9ebe aad7 dd3e 8205 b03d
00000390: 9661 abbd 61f6 37bd 1539 07be 9ff8 36bf
000003a0: a681 f7be 5fa0 0abf 270b 193d 8327 a63d
000003b0: 30d3 6bbf eb2c ffbd 1f2e 28be 2ead 46be
000003c0: 96f4 80bd 8ab4 84be bff3 893d 7a52 68bf
000003d0: 3f73 0040 efc4 98be d5ac b4bd 0a93 233e
000003e0: 4c47 28bd 29b3 983d c40a e4bd 73c4 8bbd
000003f0: a3d8 52bc 5be1 3abf 8aee c93f c68e 65be
-0.3565193 -1.0406163 0.12324847 0.16588685 0.23846483 0.0779549 -0.4234176 -0.17062183
0.07905898 0.06549205 0.0806092 0.36111802 1.2127414 -0.060982153 0.37776843 0.014284325
0.03561925 -0.09533947 -0.047492016 0.19785647 0.010245477 -0.110413015 -0.3493101 -1.3241751
0.20729002 -0.21231647 0.7105566 -0.18002625 -0.105775036 0.017291492 -0.16671588 0.10613146
-0.041451577 0.3066716 2.3660805 0.23212169 0.09586045 -0.6142995 -0.6456602 0.3436359
0.09216576 -0.08701575 -0.028207174 0.078561254 0.20942451 1.2912215 -0.20403539 0.45200777
0.3616697 -0.63916236 0.4252301 0.4542794 -0.36435306 -0.08339413 -0.05421161 -0.16473466
-0.48103446 1.2808837 -0.778363 0.047834862 -0.080537945 -0.015012077 -0.09095999 0.06838759
0.26583344 0.025136156 -0.30659813 -1.4370363 -0.8733871 0.619982 0.2451116 -0.2500034
0.0495656 0.20127146 -0.36384726 -0.11244246 0.07302154 -0.27264464 -1.3591837 -0.36196145
0.8948099 1.1795281 0.32309747 0.026193686 -0.12877403 -0.037832033 -0.08866977 0.029748825
-0.32886952 -1.8196281 0.7721068 -1.1133231 -0.5431914 -0.44006264 -0.5863847 0.026145384
-0.040523518 0.023049641 -0.060703646 0.04735475 1.832045 1.6484838 -0.19063576 -0.34722677
0.044251174 -0.06569244 -0.06443553 0.43300384 0.18762848 0.035018027 -0.5903559 -0.57721186
0.8850922 -1.044831 -0.035513926 0.005697356 -0.20365201 -0.38280746 0.3148082 -0.08137974
0.06927464 -0.24120134 1.8950286 -1.2516735 -0.92563474 -0.68548733 0.34292585 -0.15871727
-0.110101625 0.03936919 0.037242148 0.01536534 0.12637581 1.107552 -0.3541988 -0.369211
-0.44797176 -0.060162082 0.12901275 -0.42664868 0.37940398 0.18199006 0.043942716 -0.1306061
-3.1804836 0.38606256 -0.525902 -0.49903697 -0.22040099 0.12308913 -0.08814643 0.1130725
0.11001244 0.0006620814 -0.49075967 -0.59005296 -0.79021764 -0.6525134 -0.9072892 -0.2512346
-0.7630335 -0.22402802 0.20730913 0.07518572 0.07201773 0.11138578 0.77007425 1.588219
0.47287458 1.0533507 -0.70802623 0.20678543 0.15029588 0.13011369 0.39083296 0.1609725
-0.1946251 -4.260918 0.2626248 0.344454 -0.11707324 0.17563495 -0.019820912 -0.1611438
0.007687997 -0.034686796 -0.003534452 -0.11495792 0.73113036 0.14828351 0.7048614 -1.4766635
-0.22460149 -0.021825671 0.011547418 0.016785217 0.074469045 0.14273979 -0.7593747 -1.1735841
-0.9179694 -0.2538876 -0.33441046 0.07223795 -0.4473684 0.075171255 -0.14640866 -0.13529669
0.22575901 -0.530865 -0.47058764 -0.14721827 0.33548984 0.3285339 -0.289603 -0.78880006
-0.26799935 0.015549788 0.18434979 0.052178327 -0.12894484 -1.4902318 0.057320446 -0.0020903903
0.18003395 -0.30914485 0.433286 0.085948005 -0.083682224 -0.0449127 -0.13205369 -0.71473116
-0.483411 -0.54150957 0.03736415 0.08113005 -0.9211912 -0.12459739 -0.16423844 -0.19402
-0.06296651 -0.2591899 0.06735944 -0.9075085 2.007034 -0.29837748 -0.088220276 0.1597406
-0.04108362 0.07456047 -0.11134866 -0.06824579 -0.012869033 -0.73000115 1.5775921 -0.22417745

hidden_layers.0.bias f4 [256]
00000000: bd24 033c eb6c f0be f36c 6cbe 7981 ea3d
00000010: 7e71 da3e b659 e83c 3245 243c dd6a 2cbf
00000020: 6785 83be 1afb ed3d 1365 09bf 9771 9dbf
00000030: 9e6f 80be f439 89be 215c 40be 1956 103d
00000040: e089 8bbe babc bebc 7cae 32bf 0bf8 eebe
00000050: e9e7 53be 1fa6 07bf e0d6 dbbd ed82 0cbf
00000060: 5521 51bf c142 5f3c a80a 70be bc76 85be
00000070: 7088 38bf 6e8b 803d c4b1 0abe 3b4f 4fbe
00000080: 1ea8 16bd c933 5dbe aa8f adbe e865 febe
00000090: 8931 f4be 5661 b1be 888c 1ebe 2b95 79be
000000a0: 6250 aebe 1cbf e3bc 9d13 113e 0f38 13bf
000000b0: 7425 5dbe 8a6c ddbe 14e1 173f 5148 9fbe
000000c0: 712b ebbe 80b9 86bd a4f4 04be ab16 233d
000000d0: c8bb 24bf 4746 403f a37f 84bf 5f77 b2be
000000e0: 362f f7bd 9f14 4e3e 0deb 05bf c629 143e
000000f0: 5385 fb3d 1eb8 7dbd ef6a 1dbe 066c 51bf
00000100: 54f0 bf3c d368 debe ba81 3fbf b6da 79bf
00000110: 7020 cc3e 2862 a3bc b0ec 743d 6860 ca3d
00000120: 78a9 aebd 4d60 c5be ab56 97be 2ddf 373e
00000130: 975e 223e c1de 37be fc2b 803a aa62 35be
00000140: 6610 e4be 6dbb 1dbe bd37 ecbc f141 f8be
00000150: c934 83bd 3e7c fb3d c5ec b5bd 3b49 52bf
00000160: 6da9 99bd 84c1 97bd 3f34 58be 9a6f 3fbe
00000170: 0df5 c53b 624d 54bf a7f5 80bd a380 9f3d
00000180: 731f 533d 2688 38be fbbf 48bf 2bc4 11bf
00000190: 4864 be3d 22c3 7ebd acf2 72be 29cf 50bd
000001a0: 9721 63be cdf2 07bf fc5b 833e 7528 20be
000001b0: 308d d3be 049d e7bd 2772 a7be f2eb a7bd
000001c0: 7c8c 1abe 9596 c3be a2f7 8fbe fda0 e3be
000001d0: 6398 933e 1888 2ebe 1a36 ecbb 4418 b03d
000001e0: a8c5 a2bd 8b62 96be 8f4b 29bb 87d6 12be
000001f0: 42e2 0ebf fad9 143f bcc4 913d c680 e83e
00000200: 0c68 c9be 01f9 163e c6b1 a5be 56a1 82be
00000210: 9d77 ebbc d614 553e 9c3a bfbe 1ae1 79bf
00000220: 611f ddbc 1e76 10bf 1703 b2be eb20 1abd
00000230: a448 b5bc 54ae c5be 5308 59bf 1e4f aebe
00000240: 6e05 bbbe ff82 813c 988c 883e 90a6 883e
00000250: 52ab 8a3f 622f f33d 85be 04bf 0ff2 6bbe
00000260: f894 9fbe 64d1 f8bd bd1d 043d 1a05 a53d
00000270: 2147 42be 0226 f43d fa42 47be 051e a6be
00000280: 2d06 3abf ccfb b03c 96b5 0abf 6db6 69be
00000290: e136 a83e 0b60 62be d061 94be c715 55bf
000002a0: c834 0a3e 29fd 70bd f699 243c 1d69 6dbb
000002b0: d48d fdbd 38a0 a1be 89a1 c5be 4013 aebe
000002c0: 06c6 e4bd 9067 12be e231 b5be 97cd 143f
000002d0: c4a1 da3d 5440 0fbf 1755 48bf 15cb 0abf
000002e0: cabc 48be 658e 1cbf 7d1c 8fbe 85b9 a3be
000002f0: 97eb e63d b1c0 49be e507 6ebe a46c 96be
00000300: a3e0 cabe 281f c43c eae1 c2be ed94 42bf
00000310: fa41 61be 7816 bf3e 1d66 04bb 5e94 8dbe
00000320: 8251 3f3e f580 fa3d 5b4d 69be c361 51bd
00000330: 6d84 ec3c ee05 003f 4f3d 0cbe d8dd 98be
00000340: f5a8 5d3e 9275 ddbd bcfb 96bd 6929 80bd
00000350: 7f41 afbe 0dd5 b7bd 642d 08be 04d9 c13c
00000360: 7d6f 693d 270a 803e c034 e8bd 05e9 16be
00000370: c4b8 14bf 28f8 92be 717f 38bf 9878 73b9
00000380: d72d 913d ae9e 403e 0a1c e5be d890 40bf
00000390: 0990 43bd c7cb a7be 65ef 8dbe d9e7 193e
000003a0: c5e9 17bf 71e3 8ebf bfd1 8fbe 88e0 73be
000003b0: c766 b1be 897f fcbd 85f0 a4be 502b 9d3d
000003c0: 82fa c2be ac88 55bf 35db b3bd 155b 62bf
000003d0: 688f 67bf f13e 8bbe da19 28bc 058e cdbe
000003e0: 0aa7 36be 9d8d 02be bd88 38bd 213e 1abb
000003f0: 214d 6a3e ba6a 33bf 4263 07bf 0444 82bf
0.008004365 -0.46958098 -0.23088436 0.11450476 0.42664713 0.02836309 0.010026263 -0.6735056
-0.25687715 0.116201594 -0.5366985 -1.230029 -0.25085157 -0.26802027 -0.18785144 0.03523836
-0.27253628 -0.023283351 -0.6979749 -0.46673617 -0.20693935 -0.52987856 -0.107343435 -0.54887277
-0.81691486 0.013626755 -0.23441565 -0.2606715 -0.7208319 0.06276594 -0.13544375 -0.20245068
-0.036781423 -0.21601786 -0.3389867 -0.49687123 -0.47694042 -0.34644574 -0.15483296 -0.2437331
-0.34045702 -0.027801089 0.14167638 -0.57507414 -0.21596318 -0.4324687 0.59327817 -0.3110986
-0.4593158 -0.0657835 -0.12983948 0.03981654 -0.6434903 0.75107235 -1.0351452 -0.34856698
-0.12069552 0.20125054 -0.52311784 0.1446906 0.12281289 -0.061943166 -0.15372823 -0.81805456
0.023430027 -0.4343935 -0.7480732 -0.9759935 0.39868498 -0.019944265 0.059796035 0.09881669
-0.08528417 -0.38550034 -0.2955831 0.17956229 0.15856396 -0.17956068 0.0009778733 -0.17713419
-0.4454376 -0.15403529 -0.028835172 -0.4848781 -0.06406552 0.12279557 -0.08883051 -0.8214299
-0.075030185 -0.07409957 -0.2111368 -0.18694916 0.006041175 -0.82930577 -0.062968545 0.077882074
0.051543664 -0.18020687 -0.7841794 -0.56939954 0.09296471 -0.062197812 -0.23725384 -0.050978813
-0.22180782 -0.5310486 0.25656116 -0.15640433 -0.41318655 -0.11309245 -0.3270428 -0.081993
-0.15092653 -0.38200822 -0.28118616 -0.44458762 0.288272 -0.17044103 -0.007208598 0.08598378
-0.07947856 -0.29372057 -0.002583239 -0.14339648 -0.5581399 0.58145106 0.07117602 0.45410746
-0.39337194 0.14743425 -0.32362193 -0.25513715 -0.02874356 0.2080873 -0.37349403 -0.976091
-0.026992502 -0.5643023 -0.34767982 -0.03762905 -0.022129364 -0.38609564 -0.84778327 -0.34044737
-0.3652758 0.015809534 0.26669765 0.26689577 1.0833533 0.11874272 -0.5185321 -0.23041557
-0.31168342 -0.12149313 0.032254923 0.08057614 -0.18972446 0.11921312 -0.19459143 -0.32444778
-0.72665673 0.021604441 -0.5418333 -0.22823496 0.3285437 -0.2210695 -0.28980875 -0.83236355
0.13496697 -0.058835182 0.010046473 -0.0036225982 -0.12380567 -0.3156755 -0.38599804 -0.33999062
-0.111705825 -0.14297318 -0.3538962 0.58126205 0.106753856 -0.5595753 -0.78254837 -0.5421613
-0.19603267 -0.61154777 -0.27951422 -0.31977478 0.11275404 -0.19702412 -0.23245199 -0.2937976
-0.3962451 0.023940638 -0.38062984 -0.7600849 -0.21997824 0.3732183 -0.0020202466 -0.27652258
0.18683437 0.12231628 -0.22783415 -0.051118623 0.02887174 0.5000905 -0.13695262 -0.29856753
0.21646483 -0.108134404 -0.07372233 -0.06257898 -0.34229657 -0.08976183 -0.13298565 0.023663051
0.05699109 0.25007746 -0.11338186 -0.14737327 -0.5809443 -0.28704953 -0.7206946 -0.0002321921
0.070888214 0.18810531 -0.44747955 -0.75221014 -0.047744785 -0.32772657 -0.27721706 0.15029849
-0.5934108 -1.116316 -0.2808971 -0.2381612 -0.34648725 -0.12329013 -0.32214752 0.07674277
-0.38081747 -0.8341167 -0.08782045 -0.8842023 -0.90453196 -0.27196458 -0.01026007 -0.40147415
-0.17837158 -0.12749334 -0.04505228 -0.0023535567 0.22880985 -0.70084727 -0.5288583 -1.0177007

hidden_layers.1.weight f4 [256, 256]
00000000: 9ac5 c9bd 0838 0cbe 2700 e8bd 3ad7 84bc
00000010: ce49 b6bd fd0c 96bd 2202 afbd ba21 bc3d
00000020: 469a f9bd 70e0 913d c25d a63d 398d 083d
00000030: 8304 9cbd b2cb a63d 26d2 a63d ac80 debd
00000040: 796a 81bc aa84 9b3d acda 8e3c 96c4 81bd
00000050: 2ab2 25bc 4231 de3c 0644 9e3d cedf 3a3d
00000060: bd3d 00be 8536 e3bd 1480 d3bd 774f 553d
00000070: 49ae 7f3d bbd1 373c 92c7 873d 4c9b 48bd
00000080: a575 ee3c e7d1 9dbd 5860 dbbd 4816 0ebe
00000090: 24cb ffbd 748b 8ebb 3d9e 993d 6dfc e23c
000000a0: 07b5 a0bd 4e86 31bd 902f 04bd 7610 2bbc
000000b0: ca71 b13b 6b05 18be 5cd9 d6bd 79ca 9a3d
000000c0: 0026 ba3d 95e1 76bd 908a e1bd 8f00 5e3d
000000d0: 854a 81bd ed6b 293b cc2f 633d efe9 423d
000000e0: 529e 793c f0b1 c7bd 7bbf 803b 176a 283d
000000f0: bd05 c93d e4ac ee3c dc87 0abb 75dc 6bbc
00000100: 3053 c0bd 5596 193c 65ee 84bc 5c40 ee3c
00000110: 4ab5 49bd 7826 a3bd ae58 c33d 6b28 84bd
00000120: 8dc1 233d 2013 5bbd 3975 9dbd 2cea 95bd
00000130: 0abc 60bd ec06 88bd 9de8 683d 5c15 0a3d
00000140: f133 debc 0b1a e5bd 9fbb 6d3d 9afd e7bc
00000150: bd86 0cbe ed7f f5bc 08bd abbd 8791 36bd
00000160: fef7 27bd 6235 49bd 4d90 423d 73b7 173d
00000170: eb62 a23d f848 93bd e4eb 68bc 051f 91bc
00000180: e542 5b3d 92b1 ecbd 7298 9f3b bf2a 7ebd
00000190: 6bda c438 04a2 d5bc e13c 393d a777 fe3b
000001a0: 5f4b 863d 7496 b5bd 0cdd e23b 7f70 1d3d
000001b0: db71 efbc 7a81 093d 560c 193d 8d1b ecbd
000001c0: eec6 833d 2daa 03be 1bb0 07bd f14c 4d3d
000001d0: 1c1c 58bb 9fa9 23bc 998c 26bd 8be2 4c3d
000001e0: a8d4 5d3d ac01 7d3d f526 853d a09d 893d
000001f0: 7851 943d ea6d 97bc 6206 f8bd 1085 d8bd
00000200: 3090 d3bc aeed 1f3d 11d8 2a3d 4ab7 943d
00000210: 62b2 c3bd c7e0 91bc 7fd3 5c3d d4b4 2f3c
00000220: e376 52bc b14a efbd 001f a33c 4b94 453d
00000230: ef6e eabd 17ae 9f3d 1daa 743d dfda 2c3d
00000240: f4e7 72bd 79ee d3bd 5970 26bc 584c 2dbd
00000250: 1e03 ad3c 4793 a4bd 214f c23b 43c5 ba3c
00000260: 79fb 60bb b110 76bc 26cb cbbd 355f e7bd
00000270: e481 0bbd 4888 c4bd 3b50 833d f5a2 653d
00000280: 0208 24bc d0ee 953d c9f5 cabb cbf0 5ebd
00000290: 8af7 883c 241e 63bd 8929 08be c733 d0bd
000002a0: 7ccd d53c 898b adbd b2f2 d7bd d5e4 86bd
000002b0: b8b7 a9bd dea3 b9bd bbf8 33bb 6f58 cabd
000002c0: bfd5 e5bd c6c4 a6bd ed0f e6bd 9320 823d
000002d0: 2b3c 21bc dada 8f3c 5ddd 97bd 8377 a7bd
000002e0: f90c 913b 262a f13b 12d6 55bb 8a1f e23c
000002f0: eb8e 963c 2334 81bc 23d1 98bd 24e7 ef3c
00000300: 0cc7 98bd 686d e0bd fc1e 86bd 742a 8fbd
00000310: e3ef 97bd 0d0d 6cbd ad1e d0bd 6503 d3bb
00000320: 5938 e9bd 13b5 8dbc 5146 14bc d76d b4bb
00000330: d9c3 f039 405c e7bd 95fe 67bd 4df5 bfbc
00000340: a37c 9c3d 9b7e 42bd 4968 d2bc 9191 4d3d
00000350: 1e73 bc3d f7e9 dabd e56a 933d 40b9 553d
00000360: b749 bcbd 2ba9 8d3d a45b 95bc a0e8 dabd
00000370: 444c 163d 28c6 5bbd ce23 d93c 692e e8bd
00000380: 7b44 c33c 767a 0dbd 2628 143c 9f8a 09bd
00000390: 1824 f8bd 0ba7 ddbd f0da 753d ca09 593d
000003a0: 6f64 823d 5600 9ebd 4375 e0bd 1301 dbbd
000003b0: e9c5 92bd d942 b7bd 4de6 bcbd a222 efbc
000003c0: 4cba debc 23f3 393d 7eb5 d3bd 4e59 93bd
000003d0: fbdf ae3d 1fab b1bd 0878 313d 5ede 3e3d
000003e0: ffea eebd c7d8 b8bd 338b f2bc 4061 aebc
000003f0: 6590 6cbd 9f0b 19bc 0e90 b3bd 3405 96bd
-0.09852143 -0.13693249 -0.11328154 -0.01621591 -0.08900796 -0.07326696 -0.08545329 0.0918612
-0.121876284 0.07122886 0.08123352 0.033337805 -0.07618048 0.081443205 0.081455514 -0.10864386
-0.01579784 0.07593663 0.017438255 -0.06336324 -0.010113278 0.027123097 0.07727818 0.045623593
-0.12523551 -0.11094383 -0.10327163 0.052077737 0.06242207 0.011219437 0.06629862 -0.048976228
0.029108832 -0.07706051 -0.107117355 -0.13875687 -0.12489918 -0.00435012 0.07500885 0.027708257
-0.07847028 -0.043340974 -0.03227192 -0.010440936 0.005415176 -0.14845817 -0.10490677 0.0755815
0.09089279 -0.060273726 -0.11012757 0.05419975 -0.063130416 0.0025851682 0.055465505 0.047586378
0.0152355 -0.09750736 0.0039290763 0.0411168 0.098155476 0.029135175 -0.0021138107 -0.014395823
-0.09390867 0.009374221 -0.016226957 0.029083423 -0.049245156 -0.07966322 0.09538399 -0.064530216
0.039979506 -0.053485036 -0.07688374 -0.07320055 -0.054866828 -0.06641945 0.056862462 0.033711776
-0.027124377 -0.11186608 0.058040258 -0.028319169 -0.13723274 -0.029968226 -0.08385664 -0.04457238
-0.04100799 -0.049123175 0.047500897 0.037040185 0.07929023 -0.07191652 -0.014216397 -0.017714987
0.053530592 -0.11557306 0.004870468 -0.062052485 9.386692e-05 -0.026078232 0.045224074 0.0077657285
0.06557345 -0.08866587 0.0069233235 0.038437363 -0.029229095 0.033570744 0.03736528 -0.115286924
0.06434427 -0.12857886 -0.03312693 0.050122205 -0.003297574 -0.009989171 -0.040661428 0.050020736
0.054157883 0.061769173 0.06501571 0.06719518 0.072421014 -0.018485028 -0.121105924 -0.10572255
-0.02582559 0.03904503 0.041709963 0.07261522 -0.09555508 -0.017807378 0.053912636 0.010724265
-0.012845728 -0.11684168 0.019912243 0.048237126 -0.1144694 0.07796877 0.059732545 0.04220092
-0.05930324 -0.103482194 -0.010158622 -0.042309135 0.02111965 -0.080359034 0.005929843 0.02279914
-0.0034329577 -0.015018628 -0.09950857 -0.11297456 -0.03405942 -0.09596306 0.06411787 0.05606361
-0.010011675 0.073209405 -0.0061938507 -0.054428857 0.016719598 -0.055448666 -0.13297094 -0.10166126
0.02609896 -0.0847388 -0.10544337 -0.06586615 -0.08286995 -0.09064458 -0.0027461487 -0.098801486
-0.112224095 -0.08143 -0.11233506 0.06353869 -0.009841005 0.017560411 -0.074152686 -0.08177092
0.0044265953 0.007359761 -0.0032628817 0.02760293 0.018378695 -0.015771931 -0.07461765 0.029285021
-0.0745984 -0.109583676 -0.065488786 -0.06990519 -0.07418802 -0.057629634 -0.10162101 -0.0064396136
-0.113877006 -0.017298257 -0.009049968 -0.005506258 0.00045922285 -0.11296892 -0.056639273 -0.023432398
0.0764096 -0.04748402 -0.025684493 0.05018765 0.09201644 -0.106891565 0.07198123 0.05217862
-0.091937475 0.06917032 -0.018232174 -0.10688901 0.036693826 -0.053655773 0.02650633 -0.11336977
0.023836365 -0.034540616 0.009042775 -0.033579465 -0.12116259 -0.108228765 0.06002325 0.05298785
0.063668124 -0.07714908 -0.10959866 -0.10693564 -0.071666546 -0.08948297 -0.09223614 -0.029191319
-0.027188443 0.04539789 -0.10337351 -0.07194768 0.08538815 -0.08675217 0.04332736 0.046598785
-0.11665916 -0.09025722 -0.029607391 -0.021286607 -0.057754893 -0.00934115 -0.087677106 -0.07325211

hidden_layers.1.bias f4 [256]
00000000: 9d1f 76bd 99d7 d9bc 75e3 f9bd 27dc 66be
00000010: 444d fe3c 4ae6 00be 09bd 9b3e ccf2 11bf
00000020: 6bb8 efbd 3f22 00be a4b7 22bf 2abc a03e
00000030: 76c7 09bf b859 51be 44de d83c 4050 f43e
00000040: d744 603d 5be0 82be a441 993e d666 6ebe
00000050: 5374 8d3d 51aa 6a3e 2747 92bd c5ea cf3c
00000060: 5335 c0bd 0872 293d d190 57bc caa2 6e3e
00000070: 65b8 5cbe 766e 1c3e ae75 6cbf a7cc d4be
00000080: 9e90 05be d801 01be c4c9 99be 5483 03bf
00000090: d9bb c43d 4db7 9cbd 2ea2 a9bd 4b90 83bd
000000a0: cb6d b4bd 809d 553f 1f88 e9bc 21b6 d8be
000000b0: 144c 4abe fed9 e8bc fe4b 72be 8109 7b3d
000000c0: 0d62 98be c176 423d d395 3bbd cbf4 1ebe
000000d0: fa2d 08bf c9d5 21bd bb8c 6fbe 2f0c 05be
000000e0: 5d9a 85bc 04f6 e4be 90c0 133e ea18 d5be
000000f0: 890a 803e 7bc5 cebe 0903 29be 8f30 9c3e
00000100: 3581 cbbe eb83 9a3e 0c9e dc3c eed6 c8be
00000110: 2c78 52bd 8aed 7cbe 3c00 59bd a627 0dbe
00000120: 8400 a5bd 3f29 afbe 371f 6ebe 5f7e 14bf
00000130: 8fa4 19be 45d1 b2bd 3317 92be c6d2 39bf
00000140: b6f1 7bbe f373 13be fb84 53bd 59ac 4ebd
00000150: 9a77 e1be e84a 56be f06f 003e b261 033c
00000160: 4da5 56bd 0883 793c 86bb 42be 8cf7 4abe
00000170: 8146 ac3e 048d 683d 58ff d43d dcda 753e
00000180: 5dd0 4fbc f625 b5be cf7f 463e 3ba6 32bd
00000190: aff5 64be 3c39 0dbf 8d8f 8bbd 9bb0 0d3e
000001a0: 1f94 a13e 6048 80be 2a0c 213e f301 82be
000001b0: 4b23 23bc 02cc 67be a082 bd3b 9cba 3bbf
000001c0: 1130 47bd ebac 8bbd 5433 27bf 4dd7 353e
000001d0: bed2 d0bd 6b03 093d 806d 733e 4cbc a1bd
000001e0: 3cfa 6fbd 2f43 ac3e 317c 43bd 98f2 c93e
000001f0: a11f 0dbe 6b49 2bbf 68dd 683d c681 7dbd
00000200: 41ef 89be 558e 05bf 27cd a3be f199 03bd
00000210: c320 6b3e e756 dabe 1068 c83d b772 833e
00000220: fa23 183d 9dfa 25bd a1fc cdbe ab8f 823d
00000230: c0b3 fdbc d9fc 843e 05d1 0b3e df58 adbd
00000240: ce48 9cbc 64a7 ab3d a3a7 4abf 7782 1fbd
00000250: 70b3 a13e b6f5 fcbd 5e45 913d 2e8f 4ebe
00000260: 34eb e6be 89d5 69be 476e 43bd 221f babd
00000270: 81fc ddbe 6a18 3bbd d8d7 b2be 11f9 5a3e
00000280: 6e15 f2be bdeb 2ebe f869 803d a1e0 ddbe
00000290: 387f 9dbe 1f8e 0bbf 64d8 343d 9c24 57bd
000002a0: 79d5 443e 7a3f 0dbf 060b b6be 1e3f 03be
000002b0: 058f 5dbe 1ff8 82be 3289 b93d 15df 38bd
000002c0: 0a11 933e eddc 32bf 56e8 a7bf 951a bb3c
000002d0: 80be a5be cf74 59be 84a8 3abe a442 61be
000002e0: a31f 92be cfaf 04bf d78f 33bd 4911 6ebd
000002f0: 4563 8dbd 2e3b c63e ae3e c73c 71fc b03d
00000300: 510b 623d 321c e23e b9a5 75bf fe21 47bd
00000310: a387 f03e 563d aebd 7a86 9ebd a687 45be
00000320: d700 3bbd 82e9 12be a47b fdbe bdf3 f5be
00000330: f719 3ebd c5fd 01bf 54c8 81bf a44c 763e
00000340: 65ec 173e 5ddd acbe 4417 5cbd c80f 93be
00000350: 1b51 d9be f5c9 23be 4f90 b8be 7503 b23c
00000360: 15be 9c3e 0443 30bd e468 b3be dd2e 973c
00000370: f73e 31bd c98b e0be 75b8 b03e d85d 5bbd
00000380: 3af1 3d3e 0d26 bebd 37bc 01bf 6bf3 363e
00000390: eb67 0fbf 1061 afbd 9ca7 68be 7ccf 0fbb
000003a0: 9c99 2fbd 2e5d 2d3c 3cab f6be 482b 923e
000003b0: d13d 8cbe a82e 68be fce3 66bf 0d74 0abd
000003c0: 3a2d 0d3e 5f9c 1cbd 1826 59bd 50f0 db3e
000003d0: a286 21be f3b1 f6be deaa d73e bb32 b83e
000003e0: ca60 33bf 2395 43bd c20a 503e a237 873d
000003f0: 9a1e 303e 9ef1 60bd a33d 053d bd5f c1bc
-0.060088743 -0.026592063 -0.12201587 -0.22544919 0.031042702 -0.12587848 0.3041766 -0.57011104
-0.11705097 -0.12513064 -0.63561463 0.31393558 -0.5381998 -0.20444381 0.026473172 0.47717476
0.05475315 -0.25561795 0.29932892 -0.23281416 0.06906953 0.22916533 -0.071424775 0.025380502
-0.09385171 0.041368514 -0.0131570855 0.23304287 -0.21554716 0.15276513 -0.92367065 -0.41562387
-0.13043448 -0.1259836 -0.30036747 -0.51372266 0.096061416 -0.07652149 -0.082828864 -0.06424006
-0.08810004 0.8344345 -0.02850729 -0.42326453 -0.19755584 -0.02842426 -0.23661801 0.06128836
-0.29762307 0.047476534 -0.04579718 -0.15523069 -0.53195155 -0.039510522 -0.23393528 -0.12992929
-0.016308958 -0.44718945 0.14428926 -0.4162057 0.25008038 -0.4038504 -0.16505064 0.30505797
-0.39747015 0.3017877 0.026930831 -0.39226478 -0.051384136 -0.24699989 -0.05297874 -0.13784656
-0.08056739 -0.34211156 -0.23254095 -0.58005327 -0.1500418 -0.08731321 -0.28533325 -0.7258724
-0.24603924 -0.143997 -0.051640492 -0.050457332 -0.4403656 -0.20927012 0.12542701 0.008018898
-0.052403737 0.015228994 -0.19016847 -0.19820994 0.3364754 0.056775108 0.104002655 0.2400927
-0.012683955 -0.35380524 0.19384693 -0.04361556 -0.22359346 -0.5516546 -0.068144895 0.13836901
0.3155832 -0.25055218 0.15727296 -0.25392112 -0.009957145 -0.22636417 0.005783394 -0.7333162
-0.048629824 -0.06820091 -0.65312696 0.17757912 -0.10196446 0.033450525 0.2377224 -0.07897243
-0.05858825 0.33645007 -0.04772586 0.39442897 -0.13781597 -0.669089 0.056851774 -0.06189134
-0.2694035 -0.52170306 -0.31992456 -0.03212923 0.22961716 -0.42644426 0.09785473 0.25673458
0.037143685 -0.040522207 -0.40231803 0.06375059 -0.0309695 0.25974157 0.13653953 -0.084642164
-0.019077685 0.083815366 -0.79162043 -0.03894278 0.31582212 -0.12351553 0.07093309 -0.20171806
-0.4510132 -0.22835363 -0.04771259 -0.09087969 -0.43356708 -0.04567758 -0.349303 0.21384074
-0.47281975 -0.17082115 0.06270212 -0.4333544 -0.30761123 -0.54513735 0.04415168 -0.052525148
0.19222058 -0.5517498 -0.35555285 -0.12817046 -0.21636589 -0.25579926 0.09059371 -0.045134623
0.28723937 -0.69868356 -1.3117778 0.022839824 -0.32371902 -0.21235965 -0.18228346 -0.21998078
-0.28539762 -0.5183076 -0.04383835 -0.058121953 -0.069037 0.38717026 0.02432188 0.086418994
0.055186573 0.44162136 -0.95956 -0.0486164 0.46978483 -0.08507793 -0.07740493 -0.19290027
-0.045655098 -0.14346889 -0.49508393 -0.4803752 -0.04641148 -0.50777847 -1.013926 0.24052674
0.14836271 -0.33762637 -0.053733125 -0.28722978 -0.4244469 -0.15995009 -0.360476 0.021730164
0.3061377 -0.04303266 -0.35040963 0.018454963 -0.04327294 -0.43856648 0.3451573 -0.053556293
0.18549052 -0.09284601 -0.5067782 0.17866294 -0.5601794 -0.08563435 -0.22720188 -0.0021943739
-0.042871103 0.010581298 -0.48177516 0.28548646 -0.27390912 -0.22674048 -0.90191627 -0.03380208
0.13786784 -0.038235065 -0.053014845 0.4295678 -0.15774015 -0.4818264 0.4212255 0.35976204
-0.70069563 -0.04774965 0.20316604 0.06602408 0.17199174 -0.054917924 0.032529484 -0.023605222

last_fc_layer.weight f4 [3, 256]
00000000: 4836 fdbb 597c 25bf 0d23 d5bd 9c71 7cbf
00000010: a055 24bf 379d cabe 2903 573e 565d c63e
00000020: e8c5 6bbf fe11 083f da7b f3be 4886 433e
00000030: c772 bb3e 057c fdbe 46d5 033e a3f3 2e3d
00000040: 4fab 90be b0c3 a23d 2062 f73b 3273 d83e
00000050: 8156 78be c797 8f3d 2ce8 5b3f a532 963e
00000060: 6407 75be 43c2 043f ade8 bb3e c795 96bd
00000070: fc4c 823e 663a 623d d768 24bf 30db bd3e
00000080: 5f89 cc3d c744 8a3e e310 91bc 4536 22be
00000090: 00b5 a63d 4a6e 06be 29ef a5bd 8288 2ebe
000000a0: 2887 0f3d 2e60 b9bb 87ac 273f 65b0 4bbd
000000b0: 4c34 19bd 1f6c 90bd 1cb1 70be a7f2 963e
000000c0: 310d 163e daac f63e 6755 613f 40d1 c33d
000000d0: 1ca4 55bf 4ab6 2d3f 69de 2abf 207a 41be
000000e0: 2354 65bd b740 73be 02af 323f 999b 90bf
000000f0: 5b55 9f3e 63f2 2cbf c90d b73d 2556 763e
00000100: 7ff9 e63c 42d0 d63e 2ffd 2fbf f5db a5bf
00000110: ea79 3d3e 90b7 c2be ee3a 533d 1044 c23d
00000120: cbcb 1bbf 4811 13bd 70d0 44be a92e cb3e
00000130: 9f6e 4dbd 9034 debc 1d4e 673e 91f0 a8bf
00000140: f7f3 09be 7e23 d13d b8c7 13be 002d 763d
00000150: b8c3 56bf a67f 08be 9943 25bf b669 a23e
00000160: 4a15 493f f94b 01bf ba46 9b3e eecf ea3e
00000170: 32a9 1c3e 3c09 213f 7186 82bd 2857 58be
00000180: e891 8a3d 846c 813e 566e f2bc 6809 a23c
00000190: b54d c13d e5dc c2be 01f4 8e3c bff0 283e
000001a0: f5e4 e53e 16c5 c23d 5d28 6abe 5e28 c73e
000001b0: 29dc cbbe 7f60 57bd b217 983b 2d13 f3be
000001c0: 7d0b b73e 72ca 273f 9673 e3bf 6d25 eb3e
000001d0: 1cd2 cbbd 3ce6 ef3d 0689 abbd 3963 01be
000001e0: 4f9b 67be 3082 c13d 38bd 64be f0d6 4ebf
000001f0: 3b4f ea3d 9157 99be bb93 e5bd 6f3d 823d
00000200: 8b84 cdbd 75ff 83bf 37dd 75be 8316 1cbd
00000210: bcbe 023e 6c05 a2be 7b9a e9be 071a fb3e
00000220: 9e6b 923e 5a12 ed3e 16b5 323e 4cb1 b53e
00000230: 6207 83be e638 533f 3c88 223e 0581 963d
00000240: c465 7fbe 6eec 043f 964e 0dbe d995 53bd
00000250: a46c e53d 2091 813f 4144 00be 6e50 aabd
00000260: b005 473d 7c23 c23e dcda 803d 82d1 16bf
00000270: 0ada 17be d8be d13e 5567 f93e cbaa a6be
00000280: 70be a2be 2bc2 fa3e d6f5 cd3f 2056 03be
00000290: 03f3 d03e 3265 0ebe 5349 05be acd9 093e
000002a0: 1a14 63bf 8491 57be b00f afbe 96d0 43be
000002b0: ddeb 2c3f 1589 b73e 968e 45bd d705 fb3d
000002c0: f466 1e3e 8795 1cbe b107 c1bf f419 1abf
000002d0: 5bd8 9e3e 5996 dbbc 3aa0 723e 136f 1a3f
000002e0: d1cf 24be ad59 073e 4ec4 bbbd 74f4 e0be
000002f0: 951a 023e 8075 0e3b 8e3d e03d ca78 35be
00000300: d6af 3fbe 6449 593e 9435 c3be dc13 3c3d
00000310: c58c 1c3e 5d71 b93d 607f ae3f 90a0 f73e
00000320: b586 13be 5441 7abe b5f5 8e3f 94a2 dd3e
00000330: 33ae 83bc 185f 1f3f e6af f63e 2d85 3f3e
00000340: 9b69 303f e81b e93e dd55 58bf 2161 9abd
00000350: 20cc b53e 02e9 393e 6792 30be 6261 db3e
00000360: be19 c1bd 5010 bc3c a52e e3ba a108 76be
00000370: 30f1 893f 4672 41bf 6a43 0cbe 3ba4 033e
00000380: 6a06 c9be b750 0b3e cc18 c9bf d6e4 f73e
00000390: 4cd8 0fbe 6f8d f83e 4135 f2be e025 db3e
000003a0: 6b69 783d d9fa 8dbe 1a30 70be db2d f53e
000003b0: cea5 533f 4186 e53f df9a dc3e 17ca 43bd
000003c0: be4e 7abe 6a84 4b3d 33b7 e2bc f356 323f
000003d0: 8109 853d d414 d33d ce6e 363d d8c7 ab3e
000003e0: d61a 32bf 9970 c4be f009 c23b a465 923e
000003f0: de31 963e b14e 8fbd 2286 8fbf b5e8 f63d
-0.007727418 -0.64642864 -0.10407076 -0.98610854 -0.64193153 -0.3957307 0.20997299 0.38743085
-0.92098856 0.53152454 -0.4755543 0.19094193 0.36611006 -0.49508682 0.12874326 0.04271282
-0.28255698 0.07947481 0.007549539 0.42275387 -0.24251749 0.07011371 0.8590114 0.29335514
-0.239286 0.5185892 0.36700955 -0.073527865 0.2544936 0.055231474 -0.6422247 0.3708129
0.09987139 0.27005598 -0.017708248 -0.15841015 0.08139992 -0.1312801 -0.08102257 -0.17044261
0.035041004 -0.0056572175 0.6549763 -0.04972877 -0.03740339 -0.070518725 -0.23505062 0.29482004
0.1465347 0.4817875 0.8802094 0.09561396 -0.83453536 0.67856276 -0.6674562 -0.18894243
-0.055988442 -0.23755156 0.6979829 -1.1297485 0.3111981 -0.6755735 0.08938176 0.24056299
0.02819514 0.41955763 -0.687457 -1.295775 0.18503538 -0.38030672 0.05156987 0.09485638
-0.6085784 -0.035905153 -0.19220138 0.39684036 -0.050154325 -0.027124673 0.22588392 -1.3198415
-0.13471971 0.10211848 -0.14431655 0.06010151 -0.83892393 -0.13329944 -0.6455627 0.31721276
0.7854811 -0.5050655 0.30327398 0.45861763 0.15298918 0.62904716 -0.06373299 -0.21126997
0.06766111 0.25278103 -0.029593628 0.019779876 0.094386496 -0.38059154 0.017450335 0.16498087
0.44901243 0.095102474 -0.2286696 0.38897985 -0.39816406 -0.05258226 0.0046414966 -0.47475567
0.35750952 0.6554328 -1.7769649 0.4592699 -0.099521846 0.117138356 -0.083757445 -0.12635507
-0.2261784 0.094486594 -0.22337806 -0.8079672 0.11440893 -0.2994962 -0.11209818 0.06359374
-0.10035046 -1.0312334 -0.24010168 -0.038107406 0.12768072 -0.31644762 -0.45625672 0.49043295
0.2859773 0.46303064 0.17451891 0.3548683 -0.2559157 0.82508695 0.15872282 0.07348827
-0.24941164 0.51923263 -0.1379951 -0.051656578 0.11202362 1.0122414 -0.12526037 -0.08316122
0.04858941 0.37917697 0.06291744 -0.58913434 -0.14829269 0.40965915 0.4871165 -0.3255218
-0.31785917 0.48976263 1.6090648 -0.12825823 0.40810403 -0.1390579 -0.13016252 0.13461941
-0.8870255 -0.21051604 -0.34191656 -0.19122538 0.675474 0.35846773 -0.048231684 0.12256973
0.15468961 -0.15291415 -1.5080472 -0.6019585 0.3102444 -0.02680509 0.23693934 0.60325736
-0.160949 0.13217802 -0.091683015 -0.43936503 0.12705453 0.0021737516 0.109492406 -0.17721859
-0.1871942 0.21219403 -0.38126814 0.045917377 0.15288074 0.090548255 1.3632622 0.48364687
-0.14406855 -0.24438983 1.1168734 0.432881 -0.016074276 0.62254477 0.48181075 0.18703146
0.6891114 0.45529103 -0.84506017 -0.07538057 0.35507298 0.18155292 -0.17243348 0.42847735
-0.09428738 0.022956997 -0.0017332627 -0.24026729 1.077673 -0.7556499 -0.13697591 0.12855618
-0.39262706 0.13605009 -1.5710692 0.48416775 -0.14047354 0.48545405 -0.47306255 0.42802334
0.06064741 -0.27730444 -0.2345585 0.47886547 0.8267487 1.7931596 0.43086907 -0.04780015
-0.244441 0.049686827 -0.027675247 0.69663924 0.06495953 0.10306707 0.044539265 0.33550906
-0.695722 -0.38367155 0.005921595 0.2859317 0.2933492 -0.06997431 -1.1212809 0.12056104

last_fc_layer.bias f4 [3]
00000000: 418f 9f3b 2f85 813d f5d6 80bd
0.004869372 0.06324231 -0.06291

last_fc_log_std.weight f4 [3, 256]
00000000: bca4 b53c e890 333e 7f17 8dbc 7a35 3d3e
00000010: eaef 32be 8473 dd3d 14af 473d 695a 953d
00000020: 8640 19bc a8f3 033e cc43 0abc baff 3a3b
00000030: ac0c edbc cd67 df3d 5c28 3fbb fe95 09bd
00000040: 5eb0 24be ee2d 163e 7069 5ebe 053a d63d
00000050: ab63 63bd 3752 06bd db7a a63e 7d2c a3be
00000060: a948 e2bb a0ff 953d 6672 503d 0359 d1bc
00000070: b15c 8e3b 30c7 7a3e 1327 a43d 21e7 b33e
00000080: 89b0 1fbc bd6b 3dbd 1a47 da3d fa21 efbd
00000090: f653 193d a699 aa3d d0ea 7a3d 2b8f 813e
000000a0: 798a e63e 447e dbbe f64e d13e 6ffb 163d
000000b0: cd5a 2c3d 1801 00be 6c90 d3bd 9ae4 d1bd
000000c0: 4f76 efbc b433 e53e b3c7 ea3e 15c1 023e
000000d0: 6900 863e c1c5 dfbd 2c32 9e3e 195b b33d
000000e0: db00 0b3d 3d2a 1d3d 427b 963e ddeb 193f
000000f0: cdc6 683e e379 483b 909c 663c ed65 fa3d
00000100: b0bd 5ebd 06a2 9dbd e08f 643c cb75 27be
00000110: b380 803d ee46 65be c09a c03d d095 9a3f
00000120: 539c 9f3e 6e15 1cbd 819b 113e ae30 213e
00000130: adbd 0ebe 2920 793e 304d 783d cbd3 3c3d
00000140: 3339 193e 4c48 dcbc 07e3 1bbf da44 a63d
00000150: db23 453e 8d8c d33d 160e ab3d 069a 5d3e
00000160: 1f0c 943f 6dc0 edbd 1c93 ea3c 63f5 7c3d
00000170: 7cdd 52bd 81b0 3b3e a384 96bc 89cb ffbc
00000180: 5ba3 0bbb f589 04be ded2 e2bd 1fa8 79bd
00000190: a843 78bc 63d0 1ebe 1e1b 8f3d 4ed4 c6bc
000001a0: 160d af3d fa14 b7bc 62b8 183e 356b d23d
000001b0: b509 2ebe db51 883d f0fd 1d3d c9dd ed3c
000001c0: 4d5d 863e bdf6 8d3e f326 463f 649e 453e
000001d0: b63f cfbd af6b dd3b 5517 273d 4de8 d0bc
000001e0: 2545 49bd fee3 a3bd 7439 bf3d f223 8c3e
000001f0: 3e6b cbbc 2b66 463d 25fa a03d b4ec c2bd
00000200: 5ed2 833d 5a1c d93e cbc8 81bd 2152 2a3e
00000210: 4c7e 993d 6e83 5b3e c311 a93d c348 a43e
00000220: 3fe3 1f3e 40ae 5c3c 4a9d f63d 4b0e de3d
00000230: 434d 753d 87d7 b63e 3714 00be fc93 3c3e
00000240: e8d6 2bba b009 6e3d 4e77 aa3d b859 e13d
00000250: e479 723c 8ba5 bb3f 1ed6 8bbd 1b38 833b
00000260: 98cc 80bd 5aab e53c 4799 55bb 5a8e b63e
00000270: ce0b 483d c6cd 813e c3fa 133a 4999 a0bd
00000280: 801a 1d3e 879d 823d a141 1c3f 2eab 133e
00000290: 93ac 1f3e 0631 84bb 6f2c 1dbe febe c33d
000002a0: c118 c33d 7e08 8b3c 864a 083e ad7b 61be
000002b0: 6efd 933e bcd2 c53e 55b6 4fbd 32a7 853d
000002c0: b641 273e 2574 b53d e8c9 3e3e 35ee b63e
000002d0: d92f 293d ecd3 ed3d d3b1 efbc 818b 5e3d
000002e0: a19f b3bc af5e f6bc fe1c 8d3d 10f5 0a3d
000002f0: 4ed0 433a 3f36 82bd 0b5f 7c3d ec41 173e
00000300: b89d 33bd 24a3 ce3d 0273 b13c a331 983d
00000310: 0728 07be affc f4ba 0003 b43e 22c9 d53c
00000320: 89fc f2bc 14d2 6abe df86 f33e f293 f23d
00000330: 8527 033e bfd9 593e fa59 ef3c b492 a3bd
00000340: d514 4e3f b342 ae3d 9a76 8b3d 551f 5fbc
00000350: 2a87 b73d 20e9 db3b 7cd6 9fbe f336 193e
00000360: 9515 b23d 0b1f d6bd f2a2 a5bc b854 453d
00000370: dd81 4b3f 9e51 8b3e d562 64bd 4a2e cf3a
00000380: 3def 90bd 0a93 4fbd 0b56 373f 9f77 f03d
00000390: 6ac7 53bc 29c1 cc3d 67c2 863e f374 a63e
000003a0: a475 8fbd 9473 8cbb 5920 273d 16b0 703e
000003b0: 2d7f 1a3f 3550 6b3f a7f8 a93d 42e0 0dbd
000003c0: e2ab dd3d a16d 803c 83f2 cfbc 8b33 ed3d
000003d0: efd7 26bd 65c4 6ebe 4b5d 99bc 4caf f0bd
000003e0: 5049 2f3e 8060 90be ab2b 3c3c d24f 4b3d
000003f0: c706 923e 124f d83d edb5 983c 8b39 89bd
0.022173278 0.17535746 -0.017223118 0.18477431 -0.17474332 0.108130485 0.048750952 0.07292635
-0.0093537625 0.12885916 -0.008439016 0.0028533773 -0.028936706 0.1090847 -0.0029168343 -0.03359031
-0.16082904 0.14665958 -0.21719909 0.10460285 -0.055514973 -0.03279325 0.32515606 -0.3186988
-0.0069056344 0.07324147 0.05089035 -0.02555514 0.004344546 0.24490047 0.08015265 0.35137275
-0.009746679 -0.046245325 0.10658093 -0.116764024 0.037433587 0.08330087 0.06125909 0.2530454
0.4502752 -0.4286977 0.40880555 0.03686088 0.042078782 -0.12500417 -0.10330281 -0.102486804
-0.029231219 0.4476601 0.45855483 0.12768967 0.26172188 -0.109263904 0.30897653 0.0875761
0.033936363 0.03837036 0.29390913 0.60125524 0.22732086 0.0030590228 0.014075413 0.12226472
-0.05438012 -0.07696919 0.013950318 -0.16353528 0.062745474 -0.22390339 0.09404516 1.2076969
0.31173953 -0.038106374 0.14219476 0.15741226 -0.13939543 0.24328674 0.060620487 0.04610042
0.14963226 -0.026889943 -0.6089329 0.08118601 0.19251959 0.10329542 0.08352296 0.21640787
1.1566199 -0.11608968 0.0286346 0.061757457 -0.051480755 0.1832905 -0.018373793 -0.031224983
-0.0021307084 -0.12943251 -0.11075376 -0.06095135 -0.015152849 -0.1550918 0.06987594 -0.024271157
0.08547418 -0.02234887 0.14914086 0.10274354 -0.1699589 0.06656238 0.03857225 0.02903642
0.26243058 0.2772731 0.7740318 0.19298702 -0.10119574 0.0067572217 0.040793736 -0.025501395
-0.049138207 -0.080024704 0.0933713 0.27371174 -0.02483141 0.04843728 0.07860211 -0.09517804
0.06436609 0.42404443 -0.06337126 0.16632892 0.07494792 0.21436855 0.08255341 0.32086763
0.15614031 0.013469279 0.12041719 0.1084257 0.059888136 0.3571131 -0.12507711 0.18415827
-0.0006555156 0.058114707 0.08323537 0.110034406 0.014799569 1.4659895 -0.06827949 0.004004491
-0.06289023 0.028035808 -0.003259258 0.3565548 0.048839383 0.25352305 0.00056449714 -0.07841737
0.1534214 0.06377702 0.6103764 0.14420769 0.15593176 -0.0040341644 -0.15348981 0.09557913
0.09526206 0.016971823 0.13309678 -0.22019835 0.2890429 0.3863734 -0.050710995 0.065260306
0.1633366 0.088600434 0.18631709 0.35728613 0.041305397 0.116126865 -0.029259598 0.05433226
-0.021926703 -0.030074446 0.068902954 0.033925116 0.00074696995 -0.06358003 0.061614078 0.14771241
-0.043851584 0.1008971 0.021661285 0.074313425 -0.13198863 -0.0018691028 0.3515854 0.026096884
-0.029661434 -0.22931701 0.47563836 0.118446246 0.12808044 0.2127447 0.029217709 -0.07986966
0.8050054 0.085088156 0.06809731 -0.01361831 0.089613274 0.0067111403 -0.31218326 0.14962368
0.08695523 -0.1045514 -0.0202193 0.048176497 0.7949503 0.27210706 -0.055758316 0.0015806642
-0.07076881 -0.050677337 0.71615666 0.11741566 -0.012925962 0.0999778 0.26320192 0.325111
-0.0700486 -0.004286239 0.040802334 0.23504671 0.60350305 0.9191926 0.0829938 -0.034637697
0.108238 0.015677275 -0.025384193 0.11582097 -0.040733274 -0.23317106 -0.018721243 -0.11752185
0.1711781 -0.28198624 0.011485021 0.04963667 0.28520796 0.105619565 0.018641436 -0.067004286

last_fc_log_std.bias f4 [3]
00000000: a46b efbf 7327 aebf 885d debf
-1.8704724 -1.3605789 -1.7372293
